models/policy.pt (torch, 7103 bytes, 7 tensors)

policy.0.weight f4 [64, 4]
000000 ba 40 02 3d c8 5f d2 bd 0a 09 bc 3e 51 5c fb 3d
       0.03180001 -0.10272175 0.36725646 0.12273467
000010 b3 a4 9e be 9d b9 f9 be c6 99 76 3d f4 22 12 3e
       -0.3098503 -0.48774424 0.060205244 0.14271146
000020 04 a7 7c be 80 7e f4 3e 00 b7 b1 bb 80 df b6 bd
       -0.24673086 0.47752762 -0.0054234266 -0.08929348
000030 30 89 d3 3d 40 a4 7b be f0 c7 1e 3d 90 a4 8a be
       0.10328901 -0.24574375 0.038764894 -0.27078676
000040 3c f3 ef 3e e0 c8 50 bd 14 d1 db be d0 bc 2f bd
       0.4686526 -0.05097282 -0.4293295 -0.042904675
000050 fc 90 d9 be 72 04 ec 3e ff 52 38 3d a5 d2 b6 3e
       -0.42493427 0.46097142 0.045001026 0.35707584
000060 b0 63 8b bd a6 45 93 be a8 8a 32 be 00 ae 3c 3c
       -0.06806123 -0.28764075 -0.17435706 0.011516094
000070 e0 26 ae 3e 22 d2 a7 be 66 0b 26 3e fd dc b2 be
       0.34014034 -0.32777506 0.16215286 -0.34934226
000080 ec de ff be c4 d6 ca be 3c 95 23 be 12 d6 e1 be
       -0.49974763 -0.39616978 -0.15974897 -0.44108635
000090 76 4c ec be 71 a8 11 3e f7 23 b4 3d f8 cf 88 3e
       -0.46152085 0.14224412 0.08795922 0.26721168
0000a0 af d3 8e be 73 07 f7 3d bc a2 ce 3e b7 d2 aa 3d
       -0.27895877 0.12061968 0.4035853 0.08340972
0000b0 c4 e6 a7 3e a8 18 c2 bd ba 72 9d be 2c b9 87 be
       0.32793248 -0.09477359 -0.30751592 -0.26508462
0000c0 88 fa f5 be 98 a4 e7 be b5 43 60 3e 3b 3e 95 be
       -0.48042703 -0.45242763 0.21900828 -0.2914904
0000d0 c2 25 ad 3e 16 dc ac be be da 92 be 6c 03 56 3e
       0.3381787 -0.33761662 -0.28682512 0.20899743
0000e0 74 2c e9 3e a4 d3 20 3e 21 d9 99 bd 55 43 8b 3e
       0.45541728 0.15705734 -0.07512117 0.27199808
0000f0 6a ea d8 be 14 87 7e 3e a2 45 25 3e 84 03 8c 3e
       -0.42366344 0.24856216 0.16139844 0.27346432
000100 b1 bc 0b bd bb 0c ee 3d 88 20 fa 3e 58 25 99 be
       -0.034115497 0.11623522 0.48852944 -0.29911304
000110 d4 d7 90 3e 84 8e ff 3e 0a a7 bb be 1c ae 18 be
       0.28289664 0.49913418 -0.36650878 -0.14910167
000120 f2 01 b1 3e 75 63 36 be 9a b4 bb 3e 81 4e 86 3e
       0.34571797 -0.17811377 0.36661226 0.2623177
000130 40 c3 43 bc 00 1b 85 3c 80 d6 1f bd 40 71 51 bd
       -0.011948407 0.016248226 -0.039022923 -0.051133394
000140 de 8f 74 3e 66 88 1b 3e 22 01 37 3e 88 f5 53 3e
       0.23883006 0.1518875 0.17871526 0.20699131
000150 a2 fc 19 3e f4 ab ab bd 88 b3 8e 3d 02 8a 36 3e
       0.15037778 -0.08382407 0.069678366 0.17826083
000160 13 4c b7 3e 0b d7 f6 3e 46 68 e0 bd 6f 0e 81 3d
       0.35800228 0.4821094 -0.109573886 0.06301581
000170 f4 0a 88 be e8 6e ea be d8 85 94 bd 2e 09 b5 be
       -0.26570857 -0.4578774 -0.07252091 -0.35358566
000180 d7 cb 8d 3e 7b 11 9f be 08 ba 63 3e 23 82 b6 3e
       0.2769458 -0.31068024 0.22238934 0.3564616
000190 8e 5c 72 be 54 6d 7d be 67 1f da 3e 94 ca 85 bc
       -0.2366812 -0.24748737 0.42602083 -0.016331948
0001a0 dc d2 4f 3e ce 90 d9 be 84 a3 35 be a0 ad e1 3c
       0.2029528 -0.4249329 -0.17738158 0.027548611
0001b0 dc 17 c7 3e b8 89 c0 be 68 cf 9e be 80 8d 66 bd
       0.3888539 -0.3760507 -0.31017613 -0.05628729
0001c0 54 eb 33 3e 60 0a 8a be de f9 f2 be 6c 29 54 3e
       0.1757024 -0.2696104 -0.4745626 0.20718926
0001d0 fd 22 c7 3e d9 8b fb be d1 6e a4 be 79 fc e7 3e
       0.3889388 -0.49130133 -0.32115796 0.4530981
0001e0 96 d0 d3 be 08 2c 85 3d 66 17 c8 be 74 f8 3d be
       -0.41370076 0.06502539 -0.39080352 -0.18551809
0001f0 79 59 50 be 6a b9 88 3e bb a4 d2 3e cd e3 a5 3e
       -0.20346631 0.2670396 0.41141304 0.3240036
000200 99 81 94 be 55 5c cd 3e b1 e0 3c 3e f3 db 6f be
       -0.29005125 0.40109506 0.18445088 -0.23423748
000210 b8 7a df bd da 05 d9 be 08 dd b0 bd 50 3d 10 bd
       -0.109120786 -0.42387277 -0.08635908 -0.035214722
000220 10 be 1b be 6a fc f2 be 58 b7 70 be ba 7c d0 be
       -0.15209222 -0.47458202 -0.2350744 -0.4072016
000230 ac 4c 97 be 0c 0d f4 3e a4 92 ae 3e 3c 90 a8 be
       -0.29550683 0.47666204 0.34096253 -0.32922542
000240 0a a0 f2 bd 33 85 1b 3e ad d2 d9 3e be ad eb be
       -0.11846931 0.1518753 0.42543545 -0.46030992
000250 6d 8c 98 be b5 a0 de 3e ae 95 73 3e 07 89 fc 3d
       -0.29794636 0.43481985 0.23787567 0.123308234
000260 e2 cf b2 3e eb d4 e6 3d 34 ad ad 3e 5e 19 1f 3e
       0.34924227 0.1127108 0.33921206 0.1553702
000270 d9 39 a3 3e f0 5b 49 3e 34 e7 c6 3e 56 a1 7a 3e
       0.31880072 0.19663978 0.3884827 0.24475607
000280 99 cc 0f 3c c3 25 d1 3e 3b a8 c8 bd 20 0a fc 3e
       0.008776807 0.40849122 -0.097977124 0.49226475
000290 6c 3e fa 3e 32 d9 f2 be ea 3c de be 38 6f dd be
       0.4887575 -0.47431332 -0.4340585 -0.43248916
0002a0 30 e4 4f be 78 a8 95 3e 18 0c 18 be e0 7e 96 bc
       -0.2030189 0.29230094 -0.14848363 -0.018371046
0002b0 58 23 c9 3d c0 19 4a be 2a 88 fa be 86 5d f3 be
       0.098211944 -0.19736385 -0.4893201 -0.4753229
0002c0 eb 77 b3 3e df bb b6 3d 87 97 e0 bd a1 5f 83 3e
       0.35052428 0.08922552 -0.109664015 0.25658897
0002d0 6c ac dd 3e 9a 18 cf be 3c 70 c3 be bc a5 8b 3e
       0.4329561 -0.40448457 -0.38171566 0.27274883
0002e0 80 c6 9a be 02 68 82 3e fe 0e 80 be 30 51 17 3e
       -0.30229568 0.25469977 -0.25011438 0.14777064
0002f0 60 30 41 bd 64 aa d3 3e c4 84 1e be d8 27 14 be
       -0.047165275 0.41340935 -0.15480334 -0.14468324
000300 ac 54 2c 3c da 8d d5 be a9 25 ab 3e 12 03 f1 3c
       0.010518234 -0.41709787 0.3342717 0.02942041
000310 6c 9d 26 be fa f5 e0 be c0 2b 42 be 18 30 01 be
       -0.16270989 -0.43937665 -0.18962002 -0.12616003
000320 12 4d cd be 5a bc a4 3e 68 e0 3a 3e 4c 00 a0 3e
       -0.40097862 0.3217495 0.18249667 0.31250226
000330 71 1e eb 3e eb 39 c7 3e c2 b7 a7 3e af 78 ad 3e
       0.45921662 0.38911375 0.32757384 0.33881137
000340 bc b5 4f 3e b2 c2 d7 3e c4 38 b0 be c0 d1 1e 3c
       0.2028417 0.42140728 -0.3441831 0.009693563
000350 3c a6 3b 3e 80 ab e0 3c 3c c9 53 be 3c 76 f1 be
       0.18325132 0.027425528 -0.20682234 -0.47160518
000360 90 ee a6 be 80 93 06 bc a0 c7 90 bd 1c 0d 9c be
       -0.32603884 -0.008213878 -0.070693254 -0.30478752
000370 00 d2 9a be ce 9d df be 91 79 fd 3e d1 e3 a7 3e
       -0.30238342 -0.43675083 0.4950681 0.32790998
000380 71 98 4c 3c 14 4b e0 3c 52 e5 de 3e 00 56 e9 be
       0.012487517 0.02737955 0.43534333 -0.45573425
000390 50 46 cb bd 84 e8 82 3e 90 42 0c be 2c 2b cc be
       -0.099255204 0.2556802 -0.13697267 -0.39876688
0003a0 c6 2a b9 bc 42 06 35 bd 06 bc e8 bd 0a 8f af 3d
       -0.022603404 -0.04419542 -0.113639876 0.085722044
0003b0 98 fc 5b be b2 1d ad 3e 34 1f d5 be e8 5d b4 bd
       -0.21483076 0.33811718 -0.4162537 -0.08806974
0003c0 23 23 89 3e 7b 49 47 3e e2 5b d1 3e 2f 7a 34 3d
       0.2678462 0.19461624 0.40890414 0.044061836
0003d0 0a 95 e8 3e c0 dd 48 bc 82 69 b6 be e8 94 b5 3d
       0.45426208 -0.012259901 -0.3562737 0.08866292
0003e0 30 91 5e be fc 41 f6 3e ac e8 0e 3e 38 d7 45 3e
       -0.21735072 0.48097217 0.13955945 0.1932038
0003f0 30 f2 fe bd 4c 78 40 3e b6 a2 c8 be d8 82 e1 be
       -0.12448537 0.1879589 -0.3918664 -0.44045138

policy.0.bias f4 [64]
000000 c4 39 9a 3e 6b 92 e9 3e d8 6e da be d0 14 ee be
       0.30122197 0.4561952 -0.42662692 -0.46500254
000010 c0 f6 31 bc 89 8c a1 3c aa 85 88 be 4f c7 ce 3e
       -0.010862052 0.019720333 -0.26664478 0.40386435
000020 50 11 58 3d 92 42 93 bd 27 4f a9 bd 94 d6 c0 be
       0.052750885 -0.07190432 -0.0826705 -0.3766371
000030 d8 30 8a 3e 28 59 df 3d 10 5f 8d be e9 8d d0 be
       0.2699039 0.10905677 -0.2761159 -0.4073327
000040 97 28 3d be 00 50 cd be 30 f8 e2 3e b2 04 fd be
       -0.18472515 -0.40100098 0.44329977 -0.49417645
000050 5c 31 f0 3d 76 fb d3 be 90 47 ea bd 68 ca e9 3e
       0.117281646 -0.41402787 -0.11439431 0.45662236
000060 08 c1 0a bd 52 58 b7 3e 64 a3 af 3e 54 48 b3 be
       -0.033875495 0.3580957 0.34304345 -0.3501612
000070 70 cd dc bd c5 6e e6 3e b0 3b 19 3e b9 bb ad be
       -0.107813716 0.45006385 0.14964175 -0.33932284
000080 ec fc 46 3d 72 46 98 3e 3c 64 e3 3e 0e 28 f6 be
       0.04858105 0.29741246 0.4441241 -0.48077434
000090 49 e8 8b be a5 17 8f be 60 13 9f 3e e4 1d ac be
       -0.27325657 -0.27947727 0.3106947 -0.33616555
0000a0 83 d2 a5 3e 68 22 71 be 4a b5 c5 be 10 06 c1 bd
       0.3238717 -0.23548281 -0.38614875 -0.094249845
0000b0 46 89 5f be e0 c5 95 3d 70 66 90 3d c0 dc 53 3e
       -0.2182971 0.07313132 0.070507884 0.20689678
0000c0 eb 75 db 3e e0 c8 c0 3e f8 0b b1 be 38 78 f6 3e
       0.42863402 0.37653255 -0.34579444 0.48138595
0000d0 a4 8e 8c be 10 1a ed 3e 28 7d df 3d 1c 79 dd 3e
       -0.27452576 0.46308947 0.109125435 0.43256462
0000e0 6a 31 19 be c8 1a 89 3e 92 60 8d 3e ce 18 8b 3e
       -0.14960256 0.26778245 0.2761274 0.27167362
0000f0 4e af 97 3e a8 e7 9d 3d 17 23 e7 3e 3c 53 82 be
       0.29625934 0.077102005 0.4514396 -0.25454128

policy.2.weight f4 [4, 64]
000000 e7 09 a6 bb 03 ae bd bd 40 e7 c5 bb 64 f9 fc 3d
       -0.0050670984 -0.09261706 -0.00603953 0.12352255
000010 10 b7 e3 3c db 18 fe 3d e6 80 d5 bd 9f 30 c6 bc
       0.027797252 0.124070846 -0.10424976 -0.024193106
000020 78 2e 74 3d f7 7a 04 3c 01 bc 4d bc 44 5d 8d bd
       0.05961463 0.008085958 -0.012557031 -0.06902555
000030 0e 1b 8a bd b4 54 59 3d a1 2f 1a bd 42 ea 03 bc
       -0.067434415 0.053059295 -0.03764308 -0.008051457
000040 0d fb aa bd d0 30 33 3d 11 b7 bb bb d0 95 23 3c
       -0.083486654 0.043747723 -0.0057286103 0.009984449
000050 35 ab e4 3d 95 66 de 3d 04 aa 3a 3c 00 31 fc bd
       0.11165468 0.1085941 0.011393074 -0.123140335
000060 50 d7 89 bd 58 f9 da 3d e4 86 29 3d 74 86 88 bd
       -0.06730521 0.1069209 0.041388407 -0.0666627
000070 b8 c2 04 bd 5d 80 d8 3d e2 10 85 bd 3d 0f 32 ba
       -0.03241226 0.10571358 -0.06497361 -0.0006792432
000080 7f 87 08 3d e0 a5 c9 3b 80 1e c6 3a 56 ad 18 bd
       0.033332344 0.006153807 0.0015115291 -0.03727468
000090 fb ac 91 3d 87 53 8b 3d c9 fa 51 bd 50 59 9a 3c
       0.071130715 0.06803041 -0.051264558 0.018841416
0000a0 85 43 3b bd c2 2a 8e bd c0 7e c1 3d 9a 34 d3 bd
       -0.04571869 -0.06941749 0.09448004 -0.10312767
0000b0 b0 71 37 bc 20 29 ad 3c ea c4 bb 3d c0 c5 68 bc
       -0.011196539 0.021137774 0.09168418 -0.0142073035
0000c0 fc 1a a8 bd 24 aa 33 3d b4 b0 56 3c 01 ba b2 3d
       -0.08208272 0.04386343 0.013103653 0.08726884
0000d0 a0 ac 2c 3c 68 3f 4e 3d 90 d6 c9 bc f2 7d 76 bb
       0.010539204 0.050353438 -0.024638444 -0.003761169
0000e0 f6 99 8f 3d 6a 0f c0 bd 67 a4 98 bd c0 83 1b bc
       0.070117876 -0.0937794 -0.07453232 -0.009491861
0000f0 ed d9 00 3e 00 f5 26 bd b6 e6 fa 3c 74 e9 7a bd
       0.12583132 -0.040760994 0.03062759 -0.061257794
000100 ef 1f 89 bc f7 68 bc bd c0 ee c1 bd 9c d0 e8 bd
       -0.01673886 -0.09199708 -0.09469366 -0.11367914
000110 40 6d eb 3d 22 79 da 3c 6c 3d be 3d 8f 9b dc bd
       0.11495447 0.026669089 0.09289059 -0.10771858
000120 c8 bd 36 bd 9e 27 8b 3c 01 5b d6 bb 72 7a f8 3d
       -0.044614583 0.016986664 -0.00654161 0.121327296
000130 af 30 d1 bd 26 8a a9 bd 20 9d 57 bd 1d 9a 86 3c
       -0.10214364 -0.08278303 -0.05264008 0.016430909
000140 8c b8 7a 3d e8 ea ce bc dd f4 f2 bd 20 4c 50 bc
       0.061211154 -0.025258496 -0.1186311 -0.012713462
000150 29 c2 cf bd 65 ea 7b bd 75 e4 45 3d f8 c3 f9 3d
       -0.10144455 -0.061502833 0.048313577 0.12195581
000160 ba 3b e2 3c 45 eb 9a 3d a6 db a7 3d 60 f7 7e 3d
       0.02761637 0.07564405 0.081961915 0.062247634
000170 d4 65 1c 3d 4e 62 fa bd 00 f1 00 bc 51 9c 93 bd
       0.03818305 -0.122257814 -0.007869959 -0.07207549
000180 f5 32 b8 3d c0 cc f8 bb 58 13 cc 3d 53 dd c1 3d
       0.08994094 -0.0075927675 0.09964627 0.09466042
000190 fa a3 f9 bd c5 4a 89 3c 2a fb bc 3c bb 01 40 bd
       -0.12189479 0.016759286 0.023068983 -0.04687665
0001a0 4c 66 ae bc a0 c3 b2 3d da ed bb bd 3c 05 78 3d
       -0.021289013 0.08728719 -0.09176226 0.060551867
0001b0 92 e3 a8 bd 8c 80 c5 3d fc 86 36 bd 3a 53 fd bd
       -0.082465306 0.09643659 -0.044562325 -0.1236939
0001c0 92 54 00 3d 00 a4 35 bb 4f 53 86 3d 16 cd 98 bd
       0.031330653 -0.002771616 0.065588586 -0.07460992
0001d0 a0 ef 40 3c bc cc 4a bd 2c 45 38 bd e6 98 c2 bd
       0.011775881 -0.049511656 -0.044987842 -0.09501819
0001e0 3d 36 d3 3d dc 1d 3e 3d 1b ed 7c 3d 78 e1 d9 3c
       0.103130795 0.046415195 0.06174956 0.02659677
0001f0 be da b6 bd 54 ca 61 bd e6 26 51 3d 24 a9 24 3d
       -0.089284405 -0.055124596 0.051062487 0.040200368
000200 0f 51 ac 3c df 88 c4 bd 12 7d d3 bd c0 dc 12 3b
       0.021034745 -0.095964186 -0.1032659 0.002240941
000210 1e 15 94 3d e7 27 48 3d e0 c9 27 bc c9 e4 90 3d
       0.0723059 0.04886618 -0.010241002 0.07074887
000220 8e c2 99 3d 3b f3 fc 3c eb 2f 7a 3b 20 3a 69 3d
       0.075078115 0.0308777 0.0038175534 0.056940198
000230 ae 90 8b 3d 52 37 d6 bd a4 76 67 bd 7c e8 d5 3c
       0.06814705 -0.1045977 -0.05650963 0.026111834
000240 21 11 a2 3c 5c b9 62 3d b8 ae 2b bd 58 16 9f 3d
       0.019783558 0.055352554 -0.04191467 0.077679336
000250 27 fb 1b 3d f6 26 b6 bc 79 70 9b 3d ec cb 93 bd
       0.038081314 -0.022235375 0.07589812 -0.072166294
000260 6d 40 ba 3d 26 f7 8d bc 80 26 15 bb 5c a3 64 bd
       0.090943195 -0.017329764 -0.0022758543 -0.055819854
000270 0c 1f f7 bd 78 3b 6e 3d a8 c9 c9 3d 95 50 9f bd
       -0.120664686 0.058162183 0.09852916 -0.07779042
000280 fe 1e 30 bc 58 4d 68 3d da bd b0 bd a0 fb 92 3d
       -0.010749577 0.056714386 -0.08629961 0.071769
000290 1d ae b9 bc 98 cb 8d 3d 9e 83 85 bd b1 71 e0 3c
       -0.022666031 0.06923598 -0.065192446 0.027397962
0002a0 ed 3e 3f 3d e4 69 31 bd 90 de f0 3c 10 55 90 3c
       0.04669087 -0.043313876 0.029403001 0.017618686
0002b0 08 58 60 bd 12 df 93 3d 8c 7f 23 3d be 17 83 3d
       -0.054771453 0.07220282 0.03991656 0.06401013
0002c0 03 dc 9e bd b0 f8 38 3c 84 45 f9 bd 36 71 0f 3d
       -0.07756808 0.0112897605 -0.12171462 0.035020076
0002d0 6c 87 51 bd 9c a0 49 bd 1a 1c af bd 43 6a ec 3c
       -0.05115454 -0.049225435 -0.08550282 0.028859263
0002e0 75 e4 4e 3d e8 95 c2 3c 4c e6 d5 3d 20 32 41 bd
       0.050510842 0.023753121 0.10444316 -0.047166944
0002f0 fc e8 be bd ce 6e 8f bd b2 bc 68 bd ac 96 00 3d
       -0.09321782 -0.07003556 -0.05682058 0.031393692
000300 0b 33 c1 bc 4e d6 b7 3c 62 40 e5 bd 16 07 db 3d
       -0.02358391 0.022441056 -0.11193921 0.10694711
000310 a8 d0 41 3d e1 43 80 3d 98 f0 a4 bd 9e b2 bf bd
       0.04731813 0.06262947 -0.08053702 -0.093602404
000320 3a 43 f6 3d 4c 01 88 3d 6a 66 7c bd cc 45 d9 bd
       0.12024541 0.06640872 -0.061621107 -0.10609016
000330 e1 79 4b 3d a0 d9 fa 3c 9a 66 4e bd b4 e0 94 3d
       0.04967678 0.03062135 -0.050390817 0.07269421
000340 d8 e5 cb 3d 92 50 80 3d 38 e4 aa bd 88 69 b5 3c
       0.099559486 0.062653676 -0.083443105 0.022145048
000350 24 51 e0 bd 9b 5d 30 3d 59 0a 51 bc 88 1a a0 3c
       -0.10952976 0.04305802 -0.012758815 0.019543901
000360 13 71 a9 3d 88 01 b3 3d 94 b3 36 bd 5c 0c c9 3d
       0.0827352 0.087405264 -0.044604853 0.098168105
000370 d0 b7 7b bc d6 cb 8a bd d0 86 fa bd 6a 0d 31 bd
       -0.0153636485 -0.0677716 -0.12232745 -0.043225683
000380 de ef c6 bd 64 ca b0 3d 6a 74 fc 3d 2f 88 ba bd
       -0.0971372 0.08632353 0.12326892 -0.09108006
000390 08 9c a8 3d 3d 61 e6 3c f0 31 50 bd 56 92 54 3d
       0.082328856 0.028122539 -0.050828874 0.05189737
0003a0 57 93 14 bd 48 68 d4 3c f4 f4 69 bd e2 b8 d8 bd
       -0.036273327 0.025928631 -0.05711837 -0.105821386
0003b0 4d 39 0d 3d 98 5d 39 bd 84 3a a0 3d 6c 2d 99 bd
       0.034478474 -0.045255274 0.07823661 -0.07479367
0003c0 cc 44 76 3d a8 03 b7 bc ad 37 0e bd bf 6a e7 3d
       0.060124204 -0.02234061 -0.034721065 0.11299657
0003d0 d0 f6 4b 3c e6 98 82 3d f0 26 fe bc e4 c2 d2 3d
       0.012448981 0.06376819 -0.031024426 0.10291079
0003e0 f7 2e 2e bc 9a 91 fd bd c9 31 c8 bc 74 f6 38 3d
       -0.0106313145 -0.12381287 -0.024437802 0.04515691
0003f0 86 17 02 be d0 2f 60 bc 3e 57 83 bd d8 91 7c bd
       -0.12704286 -0.013683274 -0.064131245 -0.061662525

policy.2.bias f4 [4]
000000 35 03 ef 3d 89 f7 75 3d d5 60 82 3d 9c d3 6a 3c
       0.116705336 0.06005052 0.063661255 0.014332678

value.0.weight f4 [64, 4]
000000 0d 1e 14 be 73 41 29 3e cb e6 0a 3e e4 c2 0e bd
       -0.14464588 0.16528873 0.13564603 -0.03485383
000010 4c 30 03 3d ec ca 20 3e 3f e2 30 3d bc a3 92 3e
       0.03202848 0.15702409 0.043184515 0.28640544
000020 09 a5 7a bd c2 04 e2 3e aa bf cb 3e 2e d9 84 be
       -0.061192546 0.44144255 0.39794666 -0.25946945
000030 b2 fe a7 3e af 53 4c 3e 2e 34 97 bb 0d aa 03 3f
       0.32811505 0.19953798 -0.0046143746 0.5143135
000040 56 18 70 3e b4 c8 9c bd ca d1 a8 3c 86 c3 78 3e
       0.23446783 -0.076554686 0.020607848 0.24293336
000050 b0 4e 63 3e 8a a7 a7 be e4 c3 d5 be 00 58 43 bb
       0.22197986 -0.3274501 -0.41751015 -0.002980709
000060 94 34 94 be ec 28 8a be a3 3c db 3e f7 0c 8c 3e
       -0.28946364 -0.26984346 0.428197 0.2735364
000070 d9 f6 bd bc c1 6e 71 be 34 ac ec 3d c4 51 af be
       -0.023188995 -0.23577406 0.11556283 -0.3424207
000080 f6 f5 9a 3e 3b 41 62 bd bc db c6 3e af 86 16 3e
       0.30265778 -0.05523799 0.3883952 0.14699815
000090 70 a7 5f be 68 3e 86 3e cb e4 ab 3b f1 a0 31 3e
       -0.21841216 0.26219487 0.00524578 0.1734655
0000a0 f8 a8 8f be 19 ae 2b 3e db 23 ab 3d 29 24 e5 3e
       -0.280586 0.16765632 0.08356448 0.4475415
0000b0 12 56 1c 3d ef 5a 69 be e3 5e ca bd 71 77 6c 3e
       0.03816802 -0.22788595 -0.098813795 0.23092438
0000c0 df 10 e5 3d 09 18 bc bd ab 29 b9 3e 40 ce bc bd
       0.111848585 -0.09184272 0.36164603 -0.092190266
0000d0 3a 31 ad be d0 4e 81 be ac 1e 9f be 4c 8c 67 be
       -0.3382662 -0.25255442 -0.31078088 -0.22612113
0000e0 0f de 8a 3e 54 ec f3 be 30 c4 ad 3e 6c c9 2e 3d
       0.27122542 -0.47641242 0.33938742 0.04267256
0000f0 9e af 22 be 3e 25 7a 3e f9 bb f6 3e 31 91 f8 3e
       -0.15887305 0.2442827 0.48190287 0.48548272
000100 2d 19 36 bd ec f4 de be ba 01 85 3e 85 88 23 3e
       -0.044457603 -0.43546236 0.2597788 0.15970047
000110 19 c8 b0 be 99 6b b2 bd 1d c0 be 3d 81 1c 87 3e
       -0.34527662 -0.08711929 0.093139865 0.26388934
000120 70 f3 b3 bd 42 55 e1 be 80 f5 3d bc cc 10 0b be
       -0.087866664 -0.4401036 -0.011594176 -0.13580626
000130 20 16 28 bd db 04 1d be 1d 21 d7 3d ba 03 aa bd
       -0.041036725 -0.15333883 0.10504363 -0.08301492
000140 8b 9f 8f 3e 19 e1 a1 be 98 ae 9b 3e 97 d7 bf 3e
       0.2805141 -0.31617048 0.30406642 0.3746917
000150 73 83 be 3e c5 3f c2 3e 79 b8 f4 3e ca a8 17 be
       0.37209663 0.37939277 0.4779699 -0.14810482
000160 70 fc 5b bd 94 de 75 be dc 4d b7 be a0 d0 92 3c
       -0.05370754 -0.24010688 -0.3580159 0.017921746
000170 c0 68 ff 3c 50 d0 dd 3d 14 68 4d be fe 09 ec 3e
       0.031177878 0.10830748 -0.20059234 0.46101373
000180 71 e4 ca bd 7d 03 bc be dc 55 84 3e 46 5f c1 be
       -0.09906853 -0.3672141 0.25846756 -0.37768
000190 c0 fc af 3e 20 b4 5b 3e 64 fd 92 be 2c 32 24 be
       0.3437252 0.21455431 -0.28708947 -0.16034764
0001a0 49 5e d7 3e c9 29 f4 be 9f e5 9c 3d 53 09 4c 3d
       0.4206412 -0.4768813 0.07660984 0.04981358
0001b0 9c ff ad 3e 94 5a 0b be c8 8b e4 be 34 78 83 3e
       0.33984077 -0.13608772 -0.44637895 0.25677645
0001c0 bf 7f bf 3e 21 fd b4 be 94 26 2a 3e a3 88 b7 3e
       0.3740215 -0.35349372 0.16616279 0.35846433
0001d0 13 fc 83 be a9 12 71 be d5 73 e7 3a 65 bc 97 bd
       -0.25778255 -0.23542275 0.0017658422 -0.0740898
0001e0 c0 77 b7 be 60 56 2f be d5 ed de 3e 61 23 82 be
       -0.3583355 -0.17122793 0.43540826 -0.25417617
0001f0 4a b0 09 be 93 31 61 3e d5 98 cc 3d 46 b5 eb 3e
       -0.13446155 0.21991567 0.09990088 0.46036738
000200 23 a5 59 3e df e9 cc be 5d ca b2 be e7 ed df 3e
       0.21254401 -0.4002218 -0.34920016 0.43736193
000210 c8 c6 e2 bd e4 68 b2 be 00 16 19 be 10 e1 8b be
       -0.11073071 -0.3484565 -0.14949799 -0.27320147
000220 1a ce c4 be e4 20 3e be c8 e0 aa be b8 33 6d be
       -0.38438493 -0.18567234 -0.3337462 -0.2316426
000230 55 de ad be f9 75 eb be e5 c7 a2 3e d8 a6 11 3e
       -0.33958688 -0.45988443 0.31793132 0.14223802
000240 5d a3 70 be ca 13 f6 be 65 12 9e 3d f4 3e 1c be
       -0.23499818 -0.48061973 0.07718352 -0.1525839
000250 67 28 c0 3e 96 a4 7f bd 9b 34 e2 bd 25 55 ae 3d
       0.37530825 -0.06241282 -0.1104519 0.08512334
000260 f8 de b6 3e 7e e0 0e be 5a cd 3a be 2d f1 54 3e
       0.35716987 -0.13952824 -0.18242398 0.20795126
000270 18 db a0 3e 62 01 8d 3e 92 89 cf be 46 f3 d0 3e
       0.31417155 0.27540118 -0.40534645 0.40810603
000280 2c 73 a4 be 4c 89 70 be 00 1e 28 bc 86 1d aa be
       -0.3211912 -0.23489875 -0.010261059 -0.3322565
000290 0e ba ed be d0 24 94 3e 78 90 92 bd c0 63 ef bc
       -0.4643101 0.28934336 -0.071564615 -0.02922237
0002a0 a7 34 cf 3e 10 2e 67 ba f0 6a 00 be 49 4d 59 be
       0.40469858 -0.00088188145 -0.12540793 -0.21220888
0002b0 04 aa 9b be da 5c 85 3e 33 d1 83 3c 9a a4 c6 3e
       -0.3040315 0.26047403 0.016090965 0.38797456
0002c0 9b 53 6e 3c e1 8e 90 be ac ff e1 3e 5b db 73 3e
       0.0145463 -0.28234008 0.44140375 0.23814146
0002d0 ef 82 bc 3e 5c 2e 81 3d fa 41 a1 3e 9a da df 3e
       0.36818644 0.063076705 0.3149565 0.43721467
0002e0 3e a3 80 be 7a 7a 0f bb 5d 3d f2 3e 14 04 e3 3d
       -0.25124544 -0.002189307 0.4731244 0.11084762
0002f0 c8 90 94 3e 41 9e 82 3e 00 57 d8 3e da 49 a8 be
       0.2901671 0.25511363 0.42253876 -0.32868844
000300 81 bb fa 3d c8 ae 19 be bc f0 35 3e f4 a8 cc 3e
       0.12242795 -0.1500808 0.17767614 0.3997265
000310 3b 9c ea 3e df 26 e1 3e 79 5c bc 3e 4f c5 fb 3d
       0.4582232 0.4397497 0.367893 0.12293493
000320 f8 60 8a 3d 04 81 b1 3e 39 09 de bd 86 ff a8 bd
       0.067567766 0.34668744 -0.10841603 -0.08251862
000330 58 76 99 3e 6b 48 5f 3e 96 79 8f 3e 77 b8 a7 be
       0.29973102 0.21804969 0.2802245 -0.32757923
000340 70 f3 b7 3d 4c d1 8d be b0 9c 63 be c4 cc 58 be
       0.08981979 -0.27698743 -0.2222774 -0.21171862
000350 62 94 e1 3e 00 5a b6 ba 54 38 9d be 28 fe fb be
       0.4405852 -0.001391232 -0.30707037 -0.49217343
000360 12 a9 90 3e ba 24 b1 be b8 a0 9f be 78 00 85 3d
       0.2825399 -0.34598333 -0.31177306 0.0649423
000370 3b b8 00 be 1b f4 49 3e 1c 7b d3 3d 0d c0 b5 be
       -0.12570278 0.19722025 0.103262156 -0.35498086
000380 7e 23 a8 be 96 b7 ef 3e 0e 90 f6 be 60 e0 95 bc
       -0.32839578 0.46819752 -0.4815678 -0.018295467
000390 a6 95 09 be a6 1b e1 3e 49 96 de 3c 15 c1 6a be
       -0.13435993 0.43966407 0.02717127 -0.22925217
0003a0 b0 74 df bd 00 4f a4 3d e0 32 ec bc 4e e1 ba be
       -0.10910928 0.080228806 -0.028832853 -0.3650002
0003b0 00 2c cb 3b c0 0e f3 3c 1a 41 85 be c6 49 ae 3e
       0.0062003136 0.02967012 -0.2602623 0.3404066
0003c0 6e 6c 8a be 30 0c a7 be d8 f2 12 be e4 f7 5b 3e
       -0.2703585 -0.32626486 -0.1435045 0.21481282
0003d0 70 a7 ca 3d 20 32 2f bd 00 fc 21 be 48 3f ab 3d
       0.098952174 -0.042772412 -0.15818787 0.08361679
0003e0 b9 95 de bc 74 0e 91 3e 53 4c a2 3d f2 14 9f 3d
       -0.027171003 0.2833134 0.07924714 0.07767667
0003f0 a0 67 8c 3d b8 f6 c6 3d 74 38 06 be 5c 88 96 be
       0.068557024 0.097150266 -0.13107473 -0.2940091

value.0.bias f4 [64]
000000 40 de 39 3e b2 cb 69 be eb 62 b3 bc 9a cc 3e 3e
       0.18151188 -0.2283161 -0.021897754 0.18632737
000010 21 f2 c8 bd 8c 89 7c 3e e3 e9 8d 3e 49 0a 98 3d
       -0.098118074 0.24661845 0.27717504 0.07423837
000020 10 bf 3b be 0b 17 16 3d 4c 7c 47 be 3f f2 0a be
       -0.18334603 0.03664307 -0.19481009 -0.13568972
000030 4f da fb be 60 22 59 3e ca bc 21 be 52 19 b4 3e
       -0.49189994 0.2120452 -0.15794674 0.35175568
000040 de c1 8c 3e 89 ac b8 3d 48 71 89 be d6 d5 3c 3e
       0.2749166 0.090172835 -0.2684424 0.18440947
000050 dd 71 d7 3e c5 67 b9 3e 8c 26 f6 be 28 37 bf be
       0.42079058 0.36211982 -0.48076284 -0.37346768
000060 73 b8 bf bd 54 37 22 be 01 03 a0 3e 90 a8 a0 3e
       -0.09361353 -0.15841419 0.31252292 0.31378603
000070 20 c0 03 3e bd 3c dc 3e af ea 93 bb 0f 74 98 be
       0.12866259 0.4301509 -0.0045140604 -0.29776046
000080 77 c6 7f 3e 6a 2e cc be a0 61 15 3e 93 2e b7 3e
       0.24978052 -0.3987916 0.14588022 0.3577772
000090 8a f0 97 3e 4d a3 6d be a8 5f 62 3e ec 66 6d be
       0.29675704 -0.23206826 0.22106802 -0.23183793
0000a0 44 f0 3f be 94 89 4e be dc 3e 0e 3e 2e eb e6 be
       -0.18743998 -0.2016967 0.13891166 -0.45101303
0000b0 8f 5a d1 be d9 73 b1 3e 95 4e 62 3e b5 6d 0a 3e
       -0.40889403 0.34658697 0.22100289 0.13518412
0000c0 98 e7 d1 3d cd 09 92 be 86 0c 9a 3e 1e b2 b4 3e
       0.10249251 -0.28523102 0.3008768 0.35292143
0000d0 c8 ed 8c bd c0 5b e2 be 8c f9 d0 3e 91 47 85 be
       -0.06881291 -0.44210625 0.4081539 -0.26031163
0000e0 d0 86 5b bd 18 c2 8d 3e 98 62 61 be 00 ca 78 bb
       -0.053595364 0.27687144 -0.22010267 -0.0037962198
0000f0 3e 6e fa be 42 98 f7 be 1d 43 f0 3e b2 aa 82 be
       -0.48912233 -0.4835835 0.46926203 -0.25520855

value.2.weight f4 [1, 64]
000000 70 22 14 bd 6e b7 e3 3d 08 55 99 3c 51 c9 40 bd
       -0.036165655 0.11118971 0.018717304 -0.04706699
000010 72 b5 a2 3d b4 07 91 bd d1 76 6f 3d b9 d5 e8 3c
       0.07944764 -0.070815474 0.05846292 0.028422223
000020 ad e6 c9 bd 19 a6 c8 3d ed 6c 88 3d 8c 89 26 3d
       -0.09858451 0.097973056 0.06661401 0.04065852
000030 f2 75 3d 3d a0 a7 7b 3c f9 b7 af bd 3f eb 93 bd
       0.04625506 0.015359789 -0.08580012 -0.07222604
000040 7d 33 7c 3d f3 c3 a0 3d a0 13 79 3c c3 d6 05 be
       0.06157254 0.07849874 0.015202433 -0.13070206
000050 3e ea c0 3d 71 f2 ea bd 26 e1 82 bd c4 4c 04 bd
       0.09419678 -0.11472023 -0.063906 -0.032299772
000060 8e 03 98 bd dc ed 7c bd a3 7c f1 bb dc 89 2b 3d
       -0.07422553 -0.061750278 -0.007369594 0.04187952
000070 85 a1 da ba 66 87 f7 bd 62 22 b2 3d 9b df ca 3d
       -0.0016680217 -0.12086372 0.08697964 0.099059306
000080 08 a3 a8 3d 78 21 ed bd 2c 51 40 bd 87 a8 bf 3c
       0.08234221 -0.11578649 -0.04695241 0.02339579
000090 c5 0c 91 3d 40 04 6a 3a 76 cf 2d bd 52 d3 af 3d
       0.07082514 0.0008927025 -0.04243418 0.08585228
0000a0 76 9c ed 3d a0 00 63 3c 51 03 f6 bd de 5e 9e 3d
       0.11602108 0.0138551295 -0.12012351 0.07732938
0000b0 47 d4 90 3c 23 4d 2e 3d 57 f9 23 bc aa e2 57 bd
       0.017679347 0.042554032 -0.010008178 -0.052706398
0000c0 88 25 6c 3d 18 aa fe bc a5 e3 a3 bd 94 5b 0f bc
       0.05765298 -0.031086966 -0.08002404 -0.008749861
0000d0 7e 9e b5 3d f0 75 71 bc 74 98 64 bd da f1 d1 3d
       0.088681206 -0.014737591 -0.055809453 0.10251208
0000e0 70 6e 1f 3d 57 8e 81 3d f4 99 52 bd b0 ee 32 bd
       0.03892368 0.06325977 -0.051416352 -0.04368466
0000f0 80 f5 77 bb 54 39 30 3d 75 95 c2 3c e8 fc 7a bd
       -0.0037835538 0.043023422 0.023752907 -0.061276346
