models/policy.pt (torch, 7103 bytes, 7 tensors)

policy.0.weight f4 [64, 4]
0	0xbda156d0	-0.07877886
1	0x3e466a04	0.19376379
2	0x3e31cfcd	0.17364426
3	0xbec21db2	-0.3791328
4	0x3ed32bae	0.41244262
5	0xbe1e9830	-0.15487742
6	0xbe38a039	-0.1802987
7	0x3ec5e391	0.38650182
8	0x3d3dfc63	0.046383273
9	0x3eba5b86	0.36397952
10	0x3ef6bebd	0.48192397
11	0x3eb1e49e	0.34744734
12	0xbeb0ab84	-0.34505856
13	0xbe8a19ec	-0.26972902
14	0x3eed392a	0.46332675
15	0x3e8f54b3	0.27994308
16	0x3e9ba961	0.30402663
17	0x3e24f41d	0.16108747
18	0xbe889961	-0.2667952
19	0xbe61d990	-0.2205565
20	0xbe9c6f2b	-0.30553564
21	0x3d8f972b	0.07011255
22	0x3eefd1f6	0.46839875
23	0x3ef8b6c5	0.48576942
24	0xbe8b35e4	-0.27189553
25	0xbedc66cc	-0.43047178
26	0x3c07b9c0	0.008284032
27	0x3e651b2c	0.22373646
28	0x3d885310	0.06656468
29	0xbefd953c	-0.4952792
30	0x3e26ca5c	0.16288131
31	0x3da40724	0.080091745
32	0xbe814040	-0.2524433
33	0xbde6be18	-0.11266726
34	0x3d87c2d8	0.0662896
35	0xbe808ad2	-0.25105911
36	0x3c833378	0.016015753
37	0xbd245d0b	-0.040127795
38	0x3ed5b16f	0.41736934
39	0xbead08cf	-0.33795783
40	0x3e798e5a	0.24370709
41	0xbc6734a2	-0.01411167
42	0x3e7529a7	0.2394167
43	0xbe3fc5c3	-0.18727784
44	0xbd946f50	-0.07247794
45	0xbe863d52	-0.2621866
46	0x3c8c8800	0.017154694
47	0x3e480cdc	0.19536155
48	0x3e0065a1	0.12538768
49	0xbdf41ade	-0.11919187
50	0x3e28dc97	0.16490398
51	0x3ecd4940	0.40094948
52	0x3d0f1cb0	0.034939468
53	0xbe90d7ae	-0.2828955
54	0xbdd46690	-0.10371125
55	0xbe2e02a4	-0.16993195
56	0x3e996da8	0.29966474
57	0xbec7ef0b	-0.39049563
58	0x3ef10cc9	0.47080067
59	0x3e6b09e8	0.22952998
60	0xbeb85464	-0.36001885
61	0xbe8d4934	-0.27594912
62	0xbda7f3a0	-0.08200765
63	0x3e504294	0.20337898
64	0xbe1a88c7	-0.15091239
65	0x3eba4ce6	0.36386794
66	0x3d979568	0.07401544
67	0xbe6baa7d	-0.23014255
68	0x3d187383	0.037219536
69	0x3e001294	0.12507087
70	0x3e1c02a5	0.15235384
71	0x3e93149d	0.28726664
72	0xbe7271a8	-0.23676169
73	0xbe1064ac	-0.14100903
74	0xbe28ee94	-0.1649726
75	0x3ea0bce0	0.313941
76	0xbe91b7b6	-0.28460473
77	0xbecc89b2	-0.39948803
78	0xbea14088	-0.31494546
79	0xbee93e20	-0.4555521
80	0x3ebaaa1e	0.36457914
81	0xbe7c0224	-0.24610192
82	0xbeccae72	-0.3997684
83	0x3d614d50	0.05500537
84	0x3ea897a8	0.32928205
85	0xbd9c2cf4	-0.07625762
86	0x3e3d842a	0.18507448
87	0xbe619599	-0.22029723
88	0x3eab6fb8	0.33483672
89	0x3dba4b5b	0.09096404
90	0x3d928f4d	0.07156239
91	0x3d940300	0.07227135
92	0xbe08c130	-0.13354945
93	0x3e535670	0.20638442
94	0xbd5fb620	-0.054617047
95	0xbeea8e26	-0.45811576
96	0x3dd0439a	0.10169144
97	0x3e90050f	0.2812886
98	0x3ed02d6d	0.40659657
99	0x3ecb6307	0.3972399
100	0x3e3ee0d4	0.18640453
101	0x3ea736d4	0.32659018
102	0x3ea38208	0.31935143
103	0x3d318ead	0.043348957
104	0x3e664e88	0.22490895
105	0x3ec019bf	0.37519643
106	0x3eddf06b	0.43347487
107	0x3e78b336	0.24287114
108	0x3dd043ad	0.10169158
109	0x3ed3e4e4	0.41385567
110	0xbed15fdb	-0.40893444
111	0x3ede6508	0.43436456
112	0xbe2a783c	-0.16647428
113	0xbe04c87e	-0.12967107
114	0x3ec73e59	0.38914755
115	0x3e62fbbb	0.2216634
116	0xbede1210	-0.43373156
117	0x3ec76bd8	0.38949466
118	0xbe93b6fe	-0.2885055
119	0xbe983848	-0.2973044
120	0xbe79b3f2	-0.2438505
121	0x3ca24b74	0.01981137
122	0x3eec7d8b	0.46189532
123	0xbe7c8388	-0.2465955
124	0xbe91b1ca	-0.28455955
125	0x3ecd4330	0.40090322
126	0xbe8922ca	-0.26784354
127	0xbefdcd54	-0.49570715
128	0xbe9d4d67	-0.30723116
129	0x3e42af1a	0.19012108
130	0x3eeb586d	0.459659
131	0x3ee3158f	0.44352385
132	0x3edd2f6a	0.43200237
133	0xbe78b3f0	-0.2428739
134	0x3d2cda84	0.04220058
135	0xbd942c3d	-0.07235
136	0xbe4c767c	-0.19967073
137	0xbe6aa418	-0.2291416
138	0xbecfbd84	-0.40574276
139	0x3ebf4c7e	0.37363046
140	0x3dbb811a	0.091554835
141	0xbe91f46b	-0.2850679
142	0x3dc1e7c1	0.09468032
143	0x3eb1d70c	0.3473438
144	0xbd6f5041	-0.058426145
145	0x3ee84aae	0.45369476
146	0x3e5b1cf9	0.21397771
147	0x3ea440e4	0.32080758
148	0xbedcaedc	-0.43102157
149	0xbeed3180	-0.46326828
150	0x3ed20224	0.41017258
151	0xbed657fa	-0.41863996
152	0x3e25b180	0.16180992
153	0xbe300924	-0.17190987
154	0xbee280b0	-0.44238806
155	0x3ee17380	0.44033432
156	0xbeb88646	-0.36039943
157	0x3bead600	0.007166624
158	0xbebd19fc	-0.36933887
159	0xbec02e38	-0.37535262
160	0xbd6731b0	-0.05644387
161	0xbe1b55b8	-0.15169418
162	0x3e28dc14	0.16490203
163	0xbed19254	-0.40931952
164	0xbe329798	-0.17440641
165	0x3efb13ea	0.4903863
166	0xbef16d00	-0.47153473
167	0x3ef32c92	0.47494942
168	0xbe2d9ffc	-0.1695556
169	0xbe3dda5c	-0.18540329
170	0xbe8815da	-0.2657917
171	0xbec77f62	-0.38964373
172	0xbe9baef6	-0.30406922
173	0x3e5efeac	0.21776837
174	0xbe303740	-0.17208576
175	0xbdc3a9f0	-0.095538974
176	0x3e2c236f	0.16810392
177	0xbd65f688	-0.056143314
178	0xbdfa56cb	-0.12223586
179	0xbe91d82b	-0.28485236
180	0x3e34a5f8	0.17641437
181	0xbe3a1110	-0.18170571
182	0xbe704f34	-0.23467714
183	0xbef78c9e	-0.4834947
184	0xbec3c0df	-0.38233086
185	0xbd4c3f00	-0.04986477
186	0x3e88e729	0.2673886
187	0x3ef76484	0.48318875
188	0x3dc0bb68	0.09410745
189	0x3e89dd2a	0.26926547
190	0xbec85b96	-0.39132375
191	0x3b90efee	0.004423133
192	0xbea82b92	-0.32845742
193	0x3ec57596	0.38566273
194	0xbd1d5f4e	-0.038420968
195	0x3daf3ddd	0.08556721
196	0xbe0cb55c	-0.13741058
197	0xbde95920	-0.11393952
198	0xbefb486c	-0.4907869
199	0xbd7fcf40	-0.06245351
200	0x3e4dec5c	0.20109695
201	0xbe996f70	-0.29967833
202	0xbe8ca472	-0.27469212
203	0xbefb5b0c	-0.490929
204	0xbe35acc4	-0.17741686
205	0xbd0270b0	-0.03184575
206	0xbeebd432	-0.4606033
207	0x3e67c85c	0.22635025
208	0x3e379ffc	0.17932123
209	0xbd614190	-0.054994166
210	0xbe7ae55c	-0.24501556
211	0xbdd39f10	-0.10333073
212	0xbd362ca0	-0.04447615
213	0xbed7aeee	-0.42125648
214	0xbed8875e	-0.42290777
215	0xbeaac4b4	-0.33353198
216	0xbec8b418	-0.391999
217	0x3c0bd6fb	0.008535142
218	0x3ef38c75	0.47568098
219	0x3e228ab3	0.15873222
220	0x3d8f4961	0.06996418
221	0x3e6b4e94	0.22979194
222	0x3dbf1312	0.09329809
223	0xbddb3cea	-0.10704978
224	0xbcda6260	-0.026658237
225	0x3d7c8c40	0.06165719
226	0xbe3f208c	-0.1866476
227	0xbecbecea	-0.3982919
228	0xbe4ee95c	-0.20206207
229	0xbe88b338	-0.26699233
230	0xbedb4128	-0.42823148
231	0x3ef9ac52	0.48764282
232	0x3eac0875	0.33600202
233	0xbcedfb5a	-0.029050518
234	0xbeb7f658	-0.35930133
235	0x3e9e25be	0.3088817
236	0x3ee99e2e	0.45628494
237	0xbea30687	-0.31840917
238	0x3e799a42	0.24375251
239	0xbea23226	-0.31678885
240	0xbdb67500	-0.08909035
241	0xbeca948c	-0.39566457
242	0xbda4de40	-0.08050203
243	0xbcc91e80	-0.024550676
244	0x3ebf8e81	0.3741341
245	0xbe3bc918	-0.1833843
246	0x3e261dc5	0.16222294
247	0x3ec59b4f	0.38595054
248	0xbe1b392c	-0.15158528
249	0x3c8609a0	0.016362011
250	0xbc1921c0	-0.0093464255
251	0x3dab2ca8	0.08358127
252	0xbefb19af	-0.49043033
253	0x3e47308a	0.1945211
254	0x3eb8f1cb	0.36121973
255	0xbdedddda	-0.116145805

policy.0.bias f4 [64]
0	0x3dc16d3c	0.09444663
1	0x3ddb40e2	0.10705735
2	0x3d77b5e7	0.06047621
3	0xbef5e2ee	-0.48024696
4	0x3d809c74	0.06279841
5	0xbe5ffc4d	-0.21873589
6	0x3efb5f7e	0.49096292
7	0x3e9439a6	0.28950232
8	0x3e855f9e	0.26049513
9	0x3ea5201b	0.32251057
10	0xbee40e5c	-0.44542205
11	0x3dcbead0	0.09956896
12	0x3eb13232	0.34608608
13	0x3ec6d522	0.38834482
14	0x3e1ee59c	0.15517277
15	0xbcbfd6c0	-0.02341783
16	0x3ef14ba8	0.47128034
17	0x3ddc3925	0.10753087
18	0xbc6051c0	-0.013691366
19	0xbe971424	-0.29507554
20	0x3e8e6a9e	0.27815717
21	0x3e862f86	0.26208133
22	0x3de8b61b	0.11362859
23	0x3df7bd40	0.120966434
24	0x3db7eb81	0.08980466
25	0xbe9b9393	-0.30386028
26	0xbe9c59c6	-0.30537242
27	0xbec75f91	-0.389401
28	0xbe704d42	-0.23466972
29	0x3e897e36	0.26854104
30	0x3e870489	0.26370648
31	0xbe3e2bac	-0.18571347
32	0x3ca51e83	0.02015615
33	0xbe5d6a1b	-0.21622507
34	0xbd5fe600	-0.054662704
35	0xbef49f37	-0.4777772
36	0xbe8ae61b	-0.27128682
37	0xbddbd808	-0.10734564
38	0xbe79aaa0	-0.24381495
39	0xbeadb34a	-0.3392585
40	0xbed3ab54	-0.4134165
41	0xbea927d2	-0.33038193
42	0x3dad4928	0.08461219
43	0x3e4a83e4	0.19776875
44	0x3ebf0acf	0.37312934
45	0xbee4af5c	-0.4466504
46	0x3dcca536	0.09992449
47	0x3e5806fb	0.21096413
48	0x3e2fa594	0.17153007
49	0x3ead0e3e	0.33799928
50	0x3e2bb3b8	0.16767776
51	0x3e60c890	0.21951509
52	0xbd195bb0	-0.037440956
53	0xbd63a230	-0.055574596
54	0x3ee9db0f	0.4567494
55	0x3e25f8f2	0.16208246
56	0xbe096628	-0.13417876
57	0xbea1f1ba	-0.31629735
58	0x3ec42764	0.38311303
59	0xbebcbd73	-0.36863288
60	0x3edff6dc	0.43743026
61	0xbd6acfeb	-0.057327192
62	0xbe8862ca	-0.2663787
63	0x3e0573b9	0.13032426

policy.2.weight f4 [4, 64]
0	0x3caae987	0.020863308
1	0x3d801c26	0.06255369
2	0x3cdbdb97	0.026838107
3	0x3df0da0d	0.1176034
4	0x3da97101	0.08273507
5	0xbc119464	-0.008885477
6	0x3c6c50a0	0.014423519
7	0xbd9fbb52	-0.077994004
8	0x3d18536c	0.037188932
9	0xbd92938e	-0.0715705
10	0xbd255482	-0.040363796
11	0xbdd32c6c	-0.10311207
12	0xbdab876b	-0.08375438
13	0xbdc4d6ac	-0.09611258
14	0xbd7c1006	-0.06153872
15	0x3ded3ede	0.115842566
16	0x3c9034fa	0.017603386
17	0x3bf5543a	0.007486847
18	0xbdd72782	-0.105055824
19	0xbbec6ec0	-0.007215351
20	0x3d9696c6	0.073529765
21	0x3c622de2	0.013804885
22	0xbddbc83d	-0.10731552
23	0x3df215ca	0.11820562
24	0x3deb0255	0.11475054
25	0x3de8dab1	0.11369837
26	0x3db30941	0.087419994
27	0x3daab1ee	0.08334719
28	0x3dfd867b	0.12379166
29	0x3cd4b9e8	0.025967553
30	0x3d494e93	0.0491472
31	0xba910200	-0.0011063218
32	0xbde5fb12	-0.112295285
33	0xbdad6567	-0.084666066
34	0xbdf868e8	-0.12129384
35	0x3dca0ca7	0.098656945
36	0x3d0c5743	0.034262907
37	0x3d76d2b0	0.06025952
38	0x3d8ad194	0.06778255
39	0xbcf9d0c0	-0.030495048
40	0xbd93bc06	-0.07213597
41	0x3d765264	0.060137168
42	0x3c90f7a0	0.017696202
43	0xbac4da00	-0.0015018582
44	0xbd94826a	-0.07251437
45	0xbd88e512	-0.06684317
46	0x3d70cdb4	0.058789924
47	0xbdbea456	-0.09308688
48	0xbd8ecbc5	-0.0697246
49	0xbd6e9214	-0.05824478
50	0xbb8f2000	-0.0043678284
51	0x3d744250	0.059633553
52	0x3d442358	0.04788527
53	0xbd6c4e94	-0.057692125
54	0xbd430869	-0.047615442
55	0xbd81be85	-0.06335167
56	0x3d907ea8	0.07055408
57	0xbd87b58e	-0.06626426
58	0x3dbab325	0.091162
59	0x3d7877e1	0.0606612
60	0xbdf71c74	-0.12065974
61	0xbdf0d5db	-0.1175954
62	0xbd86ac5c	-0.06575844
63	0xbdea3407	-0.11435705
64	0x3dc2aaa0	0.095052004
65	0x3df19f74	0.117979914
66	0xbd049fb1	-0.032378856
67	0x3e01d019	0.12677039
68	0x3cf3ef27	0.029777123
69	0x3c9956e1	0.018718185
70	0x3d4ac9b0	0.04950875
71	0xbcec01ad	-0.028809393
72	0x3cedf368	0.02904673
73	0xbd10205a	-0.035187103
74	0xbdd18d65	-0.10232047
75	0xbd245350	-0.040118515
76	0xbc47e81c	-0.012201335
77	0xbdd24570	-0.102671504
78	0xbdedf339	-0.11618657
79	0x3df16986	0.11787705
80	0xbc956c49	-0.018240111
81	0xbd1f5ed6	-0.038908802
82	0xbda85ed8	-0.08221215
83	0xbdc67aca	-0.09691389
84	0xbdd782e6	-0.10523014
85	0x3d71c5b4	0.059026435
86	0xbda5d706	-0.08097653
87	0xbdf589b4	-0.119891554
88	0x3de91249	0.11380441
89	0xbddc2aca	-0.10750349
90	0xbdb28650	-0.08717024
91	0x3dcef83b	0.1010594
92	0x3cab1c3f	0.020887492
93	0x3d08d0bc	0.03340219
94	0x3d0b0e6c	0.0339493
95	0x3cef4b90	0.029210836
96	0xbc5c8959	-0.013460481
97	0x3c531f59	0.012885892
98	0xbc406280	-0.011742234
99	0xbdfe7911	-0.12425435
100	0xbd25c795	-0.04047354
101	0xbd7151ec	-0.058916017
102	0xb9305400	-0.0001681596
103	0x3dac0522	0.083994165
104	0xbdaa41f2	-0.08313359
105	0xbd66058c	-0.056157634
106	0xbd99c5ac	-0.07508406
107	0xbbc0f3e0	-0.005888447
108	0xbe0099b3	-0.12558632
109	0xbdf911f2	-0.12161626
110	0xbd07f4f2	-0.033192582
111	0x3dc7e409	0.09760291
112	0xbc9e12b2	-0.019296024
113	0x3db754c0	0.08951712
114	0xba2cfe00	-0.0006599128
115	0xbda0b1de	-0.078464255
116	0xbd686d78	-0.056745023
117	0x3cf572e8	0.029962018
118	0x3c48fa4a	0.012266705
119	0x3de9801e	0.114013895
120	0x3d99504e	0.0748602
121	0xbd918cc8	-0.0710693
122	0x3de56b95	0.1120216
123	0x3dae269b	0.08503457
124	0xbd716f94	-0.0589443
125	0x3ddd9b62	0.108206525
126	0xbd3222f8	-0.04349038
127	0x3d888763	0.06666448
128	0xbdaeb2fc	-0.08530232
129	0xbda0ac8b	-0.0784541
130	0x3d0db439	0.0345957
131	0x3d830892	0.06398119
132	0xbd405c14	-0.046962813
133	0x3de8afb8	0.11361641
134	0x3d91d9ce	0.07121621
135	0xbd6fbfe9	-0.05853263
136	0xbda23756	-0.07920711
137	0xbd50a67c	-0.050940022
138	0x3dcc6f0c	0.09982118
139	0xbd3032cc	-0.043017194
140	0xbac57d71	-0.0015067292
141	0x3c9f0390	0.019410878
142	0x3b01c478	0.0019800942
143	0xbdf59a84	-0.11992362
144	0xbdd7857e	-0.105235085
145	0xbdc54510	-0.09632313
146	0xbc57f270	-0.01318036
147	0xbdbd2c60	-0.092369795
148	0x3cddf868	0.027095988
149	0xbdfa741d	-0.12229178
150	0xbdd899c9	-0.10576207
151	0x3d5a06dc	0.053229198
152	0x3c506229	0.012718716
153	0x3de6909d	0.112580515
154	0xbd0e449d	-0.034733403
155	0x3c88a5aa	0.016680557
156	0x3cdf24d4	0.02723924
157	0x3c9e3530	0.019312471
158	0x3c2071cf	0.009792759
159	0x3d97deb8	0.07415527
160	0xbd2f5fcb	-0.042815965
161	0xbd441d17	-0.047879305
162	0x3def98aa	0.1169904
163	0xbda3e82a	-0.08003266
164	0xbb0dee32	-0.0021656868
165	0xbd8edfb8	-0.06976265
166	0xbd7be9f0	-0.061502397
167	0xbce3f3e0	-0.02782625
168	0xbd6e14bc	-0.058125243
169	0x3d3bbf50	0.045836747
170	0x3d75f8fc	0.060051903
171	0xbd624488	-0.055241138
172	0x3cb8fc16	0.022581141
173	0x3c7218c0	0.014776409
174	0xbdc9a411	-0.09845746
175	0xbcb743e9	-0.02237125
176	0x3de8a123	0.113588594
177	0xb99e8e00	-0.00030241907
178	0x3c1705a0	0.00921765
179	0x3daaff0a	0.08349426
180	0x3cf7cef0	0.030250043
181	0xbc8b9aa0	-0.017041504
182	0xbd619d67	-0.05508175
183	0x3cb2832a	0.02179106
184	0x3dfce6b8	0.123486936
185	0x3c8576d8	0.01629202
186	0xbd4136e5	-0.047171492
187	0x3cfda1a5	0.030960867
188	0xbd9308b8	-0.07179397
189	0xbd156801	-0.03647614
190	0x3d68618c	0.056733653
191	0xbd257cb4	-0.04040213
192	0xbd7cbb4d	-0.06170206
193	0x3deeea1c	0.116657466
194	0xbc11b232	-0.008892583
195	0x3d43f232	0.047838397
196	0xbda7ccff	-0.08193397
197	0x3d783aae	0.060602836
198	0x3da5a1d6	0.080875084
199	0xbdb6a0d3	-0.089173935
200	0xbddcba86	-0.10777764
201	0x3dc75009	0.09732062
202	0x3d17682f	0.03696459
203	0x3d29d348	0.04146126
204	0xbd93d446	-0.07218222
205	0xbd7187cc	-0.058967397
206	0xbd064618	-0.03278169
207	0xbd9917b4	-0.07475224
208	0x3dd53af9	0.10411639
209	0xbdf3a606	-0.11896901
210	0xbd587174	-0.052842572
211	0xbc7192a0	-0.014744431
212	0xbdec6cb8	-0.11544174
213	0x3db346ab	0.08753713
214	0xbd9ef136	-0.07760851
215	0xbdee782c	-0.11644015
216	0xbbe72f13	-0.007055172
217	0xbd987cfd	-0.074457146
218	0xbd0d9eb3	-0.034575175
219	0x3daa54e9	0.083169766
220	0xbd663538	-0.056203097
221	0x3ded49e8	0.11586362
222	0xbcae184a	-0.021251816
223	0x39f8f600	0.0004748553
224	0xbd93edbb	-0.07223078
225	0xbb907675	-0.0044086524
226	0x3dc94144	0.098269016
227	0x3d604d8e	0.054761462
228	0x3da38bc0	0.079856396
229	0xbdaab4f6	-0.08335297
230	0xbd1bd178	-0.03804156
231	0x3ca60e18	0.020270392
232	0x3d86f462	0.06589581
233	0xbd21ad58	-0.039471954
234	0x3d2ef564	0.04271449
235	0xbd80b956	-0.0628535
236	0x3dc44d9e	0.09585117
237	0x3d188cbc	0.03724359
238	0xbdeafe89	-0.1147433
239	0xbc7ef9a4	-0.015562449
240	0xbd9146cf	-0.07093584
241	0x3d91660e	0.070995435
242	0xba1b9800	-0.00059354305
243	0xbd91be3e	-0.07116364
244	0xbdc1bcfa	-0.094598725
245	0xbc9b5908	-0.018963352
246	0x3de91ded	0.11382661
247	0xbca62488	-0.020281091
248	0xbb7d8d40	-0.0038688928
249	0xbc3bfc80	-0.011473775
250	0xbd9f8034	-0.07788125
251	0x3a0ceaaf	0.0005375547
252	0x3c881438	0.016611204
253	0x3b79146f	0.0038006564
254	0xbd844b26	-0.06459646
255	0x3a5a028d	0.000831642

policy.2.bias f4 [4]
0	0x3d408c44	0.047008768
1	0xbdb39663	-0.08768918
2	0xbda90d77	-0.08254521
3	0x3dccd3ad	0.100013115

value.0.weight f4 [64, 4]
0	0x3d64464d	0.055731107
1	0x3e9d6027	0.3073742
2	0x3eb49288	0.35268044
3	0x3eff3a38	0.49849105
4	0xbeb6b9f4	-0.35688746
5	0xbd816228	-0.0631755
6	0xbef2d6ca	-0.47429496
7	0x3d964bb8	0.07338661
8	0x3ec4ccd2	0.38437515
9	0xbcd8a7a7	-0.02644713
10	0xbcb40916	-0.021976989
11	0xbb998da8	-0.004686076
12	0xbee160be	-0.4401912
13	0xbb1aa300	-0.002359569
14	0x3b911900	0.004428029
15	0xbed4314a	-0.41443855
16	0x3ed7b077	0.4212682
17	0xbd243ccc	-0.040097043
18	0xbdf4626a	-0.119328335
19	0x3ea8e369	0.32986
20	0x3d97690e	0.073930845
21	0x3ea54b1c	0.32283866
22	0x3eab67ff	0.3347778
23	0xbeed8964	-0.46393883
24	0xbc8bb123	-0.017052239
25	0x3eff9e22	0.49925333
26	0x3eb4a080	0.35278702
27	0x3e8f479f	0.2798433
28	0xbdee0c70	-0.11623466
29	0xbec7492e	-0.3892302
30	0xbead45ce	-0.3384232
31	0x3df2de38	0.11858791
32	0x3e921cbc	0.28537548
33	0x3ec4794b	0.3837379
34	0xbe54ad62	-0.20769265
35	0x3e25684c	0.16153067
36	0x3ebda6b0	0.37041235
37	0x3e8d1d72	0.27561527
38	0xbe74af8a	-0.23895088
39	0x3dcad0ed	0.09903131
40	0x3edd1958	0.43183398
41	0x3e2cc331	0.16871335
42	0x3eee9022	0.4659434
43	0xbdfc7e5f	-0.12328791
44	0xbd48ba20	-0.049005628
45	0xbe9b7938	-0.3036592
46	0x3e473b20	0.19456148
47	0xbebe22d2	-0.3713594
48	0x3e35df91	0.17761065
49	0x3eca6d11	0.39536336
50	0xbba665a5	-0.005078035
51	0x3da4de91	0.08050264
52	0xbe4e24b8	-0.20131195
53	0xbde12828	-0.10993987
54	0xbeb02a78	-0.344074
55	0xbe026b94	-0.1273635
56	0x3ed04d23	0.4068385
57	0xbd873110	-0.06601155
58	0x3e0425f0	0.12905097
59	0x3eab4f7e	0.33459085
60	0x3eaa60ce	0.3327698
61	0x3ec73b3d	0.38912383
62	0xbd17ff51	-0.037108723
63	0xbe73c513	-0.23805647
64	0xbed54dca	-0.4166091
65	0x3e591ee4	0.2120319
66	0x3ebed648	0.3727286
67	0xbd866a91	-0.06563295
68	0xbe8321d6	-0.25611752
69	0xbd7cbfe0	-0.061706424
70	0xbec78250	-0.38966608
71	0xbea28306	-0.31740588
72	0x3f016158	0.5053916
73	0x3ea43a99	0.32075956
74	0x3e926fb7	0.28600857
75	0xbe47b179	-0.19501294
76	0xbee18974	-0.4405018
77	0xbe510e0a	-0.20415512
78	0x3ef70e09	0.48252895
79	0x3e9beb3e	0.30452913
80	0xbba1b000	-0.004934311
81	0x3e5cdd28	0.2156874
82	0xbeb366b0	-0.35039282
83	0x3ebeb372	0.3724628
84	0x3eb675aa	0.35636646
85	0x3e200f95	0.15630944
86	0x3e9fc1e7	0.31202623
87	0xbe34ec9f	-0.17668389
88	0x3e61f379	0.22065534
89	0xbeab1799	-0.3341644
90	0x3ebe1e88	0.37132668
91	0x3d38e181	0.045136932
92	0x3ef73d06	0.48288745
93	0x3e84fbff	0.25973508
94	0xbeff44d7	-0.49857208
95	0x3eb7324c	0.3578056
96	0xbe9c7f50	-0.30565882
97	0x3ebb9674	0.36638224
98	0xbeb7419e	-0.3579225
99	0x3e04dcf4	0.12974912
100	0xbebd930c	-0.3702625
101	0xbef9fd16	-0.48825902
102	0x3de6eac0	0.11275244
103	0xbd3b9c00	-0.04580307
104	0xbe45ae10	-0.19304681
105	0x3e66ff74	0.22558385
106	0xbe98445e	-0.2973966
107	0x3cdb6d80	0.026785612
108	0x3d2c69b0	0.04209298
109	0xbe009a04	-0.12558752
110	0xbe03f348	-0.12885773
111	0xbe52d4c0	-0.2058897
112	0xbe80f1e1	-0.2518454
113	0x3e211ee4	0.1573444
114	0x3e75b201	0.23993684
115	0xbe6eeffc	-0.23333734
116	0x3e8cffa2	0.27538782
117	0xbdd61d3c	-0.10454795
118	0xbe1855ff	-0.14876555
119	0xbe909642	-0.28239638
120	0xbe4354a8	-0.19075263
121	0xbea7f22a	-0.32801944
122	0xbe271c18	-0.1631931
123	0xbda0e158	-0.07855481
124	0x3ed30dc1	0.4122143
125	0xbedbca03	-0.4292756
126	0xbe0bcaf6	-0.13651642
127	0x3e2c992b	0.16855304
128	0x3ec0c2d7	0.3764865
129	0x3e185bed	0.14878817
130	0x3e0b991f	0.1363263
131	0xbe1d435c	-0.15357727
132	0xbe995d64	-0.29954064
133	0xbdbd8320	-0.09253526
134	0x3d0fc290	0.03509766
135	0x3df8adf8	0.12142557
136	0x3e8a1ca7	0.26974985
137	0x3e874feb	0.2642816
138	0x3e5a2dec	0.2130658
139	0x3ea87dfa	0.32908612
140	0xbee32b5a	-0.44369012
141	0xbee0ae74	-0.43883097
142	0x3d880150	0.06640875
143	0xbea467b4	-0.3211037
144	0xbeb994f2	-0.3624645
145	0x3e2ba148	0.16760743
146	0xbeea71f6	-0.4579007
147	0xbe5fdae0	-0.21860838
148	0xbb545a00	-0.0032402277
149	0x3ea5bb5c	0.32369506
150	0xbea4720c	-0.3211826
151	0x3e23993c	0.15976423
152	0xbe786864	-0.24258572
153	0xbe8f3992	-0.2797361
154	0xbe37db60	-0.17954779
155	0x3d2e7a40	0.042597055
156	0xbecf0726	-0.4043514
157	0x3e17fe78	0.14843166
158	0xbe192fac	-0.14959592
159	0xbec6bda6	-0.38816565
160	0xbe895756	-0.26824445
161	0x3eceffb6	0.40429467
162	0x3e2f6d20	0.17131472
163	0x3e36450c	0.17799777
164	0xbe81aed7	-0.25328705
165	0xbe2d50d3	-0.16925363
166	0x3ee3250b	0.443642
167	0x3e9f505e	0.31116003
168	0x3dce6442	0.100777164
169	0xbe92be1e	-0.28660673
170	0x3eeef24f	0.46669242
171	0x3dff75e3	0.12473657
172	0xbdedc5e8	-0.11610013
173	0x3e48b978	0.19602
174	0x3af75600	0.0018870234
175	0xbe004ef8	-0.12530124
176	0x3ea13be4	0.31491005
177	0x3dff12f4	0.12454787
178	0xbea03100	-0.31287384
179	0x3e851386	0.25991458
180	0xbebd7f1c	-0.3701104
181	0x3dbd4278	0.092411935
182	0xbe6a898c	-0.22904032
183	0x3ebffa7a	0.37495786
184	0xbedfe8ef	-0.43732402
185	0xbe04461b	-0.12917368
186	0x3ec2837b	0.37990937
187	0x3d813fde	0.0631101
188	0xbd8be778	-0.068312585
189	0x3df118d0	0.11772311
190	0xbe901fc6	-0.2814924
191	0x3e949556	0.29020184
192	0x3e4d15ac	0.20027798
193	0x3de6c39f	0.112677805
194	0x3ea524d2	0.32254654
195	0x3ef5b2e8	0.47988057
196	0xbd10cf60	-0.03535402
197	0xbed3bcf8	-0.4135511
198	0xbe708160	-0.23486853
199	0xbdd2f870	-0.10301292
200	0xbe92fb49	-0.2870734
201	0xbd8e8b4c	-0.069601625
202	0x3ea52a52	0.3225885
203	0x3ea04c3a	0.31308156
204	0x3e181510	0.14851785
205	0xbeef495e	-0.46735662
206	0xbe8850de	-0.26624197
207	0xbd42ba60	-0.047541022
208	0x3e937716	0.28801793
209	0xbe1ab560	-0.15108252
210	0xbee61358	-0.44936633
211	0xbedbb0ec	-0.42908418
212	0x3ec1b399	0.37832335
213	0x3e8aded0	0.27123117
214	0x3ea9baaf	0.3315024
215	0x3ef22886	0.47296542
216	0xbe4b63ab	-0.19862239
217	0x3cb903b1	0.022584768
218	0x3e0b542d	0.1360633
219	0xbe8556c3	-0.26042756
220	0x3ba28c03	0.0049605384
221	0x3eca54ff	0.39517972
222	0x3ed014eb	0.4064096
223	0xbe5dc77a	-0.21658126
224	0x3e1b7411	0.15180995
225	0xbe584d82	-0.21123317
226	0x3ecd665e	0.40117162
227	0xbd697146	-0.05699279
228	0xbe953948	-0.29145265
229	0xbee58bf4	-0.44833338
230	0x3db09120	0.086214304
231	0x3ee7afea	0.452514
232	0xbea6870e	-0.32524914
233	0xbe6b1238	-0.22956169
234	0xbed1806e	-0.40918297
235	0x3e8c72ba	0.2743128
236	0xbe0e06ae	-0.13869736
237	0x3db6f230	0.08932912
238	0x3de1a6a6	0.11018114
239	0x3ed548a3	0.4165698
240	0x3e8d967b	0.2765387
241	0x3ec3bbf0	0.38229322
242	0xbef88988	-0.48542428
243	0xbe4ef32b	-0.20209949
244	0x3ebd8986	0.37018985
245	0xbd578cee	-0.052624635
246	0x3de9c2d3	0.11414113
247	0xbe571dbd	-0.21007438
248	0x3efb200e	0.49047893
249	0xbb542828	-0.0032372568
250	0xbdc51b16	-0.09624307
251	0xbeaabec4	-0.33348668
252	0xbed8b5fa	-0.42326337
253	0xbd8d8a00	-0.06911087
254	0xbec87a56	-0.39155835
255	0xbef04952	-0.4693094

value.0.bias f4 [64]
0	0xbef0cbfb	-0.47030625
1	0xbeb4bc60	-0.3529997
2	0x3d950428	0.07276183
3	0x3e32c430	0.17457652
4	0x3f0164df	0.5054454
5	0x3de9cba1	0.11415792
6	0x3ec7eba3	0.39046964
7	0xbeac09d4	-0.33601248
8	0x3e030d6c	0.12798089
9	0xbd201e0a	-0.039091147
10	0xbe8b547e	-0.272129
11	0x3e0ca840	0.13736057
12	0x3df9640f	0.12177288
13	0x3efcdd6c	0.4938768
14	0xbd1e3009	-0.03862003
15	0x3e24d385	0.16096313
16	0xbe2e1621	-0.17000629
17	0x3d9756a0	0.07389569
18	0xbece6359	-0.4031017
19	0xbd96d76e	-0.07365309
20	0xbebcf68a	-0.36906844
21	0x3ed122cf	0.4084687
22	0x3e4c8a1c	0.1997456
23	0x3e2199c4	0.15781313
24	0xbd8b6008	-0.06805426
25	0x3e5d78ec	0.2162816
26	0x3d628520	0.05530274
27	0xbee5f612	-0.449143
28	0xbe2aeb21	-0.16691257
29	0x3ebb1a0a	0.36543304
30	0x3e7ff718	0.24996603
31	0xbec241c5	-0.37940803
32	0xbebe4ea3	-0.3716937
33	0xbe67e910	-0.226475
34	0xbe2f9960	-0.17148352
35	0xbcab26c0	-0.0208925
36	0x3eeed61c	0.46647727
37	0x3b174f00	0.002308786
38	0xbe8baef4	-0.27281916
39	0xbe8efb06	-0.2792589
40	0xbea03ccc	-0.31296384
41	0xbd96fdef	-0.07372653
42	0x3e28d8d9	0.16488971
43	0xbdcc5f18	-0.09979075
44	0x3ee74132	0.45166928
45	0x3ebfd014	0.3746344
46	0xbe204fe3	-0.15655474
47	0xbe01c5c8	-0.12673104
48	0xbe44686c	-0.19180459
49	0xbea7c262	-0.3276549
50	0x3d4ea515	0.050450403
51	0xbe3d8530	-0.18507838
52	0x3e91d716	0.2848441
53	0x3e785162	0.24249795
54	0x3ca7fa31	0.020505043
55	0x3ee914e4	0.4552375
56	0xbe3450e2	-0.1760898
57	0xbd767920	-0.060174108
58	0x3ea9b208	0.3314364
59	0xbe6745b0	-0.22585177
60	0xbe8c726c	-0.27431047
61	0x3e86ec29	0.2635205
62	0x3e8b5651	0.27214292
63	0x3eb22466	0.34793395

value.2.weight f4 [1, 64]
0	0xbd67bf83	-0.056579124
1	0x3d9e2d4a	0.07723482
2	0xbd101eea	-0.035185732
3	0xbd9e6332	-0.07733764
4	0xbde3ab99	-0.11116714
5	0x3d769458	0.060200065
6	0xbcda2e29	-0.026633339
7	0xbdf949ba	-0.12172265
8	0xbd9eb508	-0.07749373
9	0xbd8e50f5	-0.06949035
10	0xbd384794	-0.044990137
11	0x3d3dabdc	0.046306476
12	0x3d3c52c5	0.045977373
13	0x3c807c70	0.015684336
14	0x3d8b9d7e	0.068171486
15	0xbddfcd09	-0.10927779
16	0xbdf5651c	-0.11982176
17	0xbcc2ede0	-0.023795068
18	0xbc5edd13	-0.013602513
19	0xbde817ab	-0.11332639
20	0x3d7bccf4	0.061474755
21	0x3c6dc62d	0.014512581
22	0x3c6d0f52	0.014468985
23	0x3ca1999d	0.019726569
24	0x3da9dd88	0.08294207
25	0x3ce613b0	0.02808556
26	0xbdfe102a	-0.12405427
27	0x3df1f97c	0.118151635
28	0x3c985468	0.018594936
29	0xbc10c69f	-0.008836417
30	0xbc06e690	-0.008233681
31	0x3d9123ad	0.07086883
32	0x3d16fc03	0.03686143
33	0x3c85fb18	0.016355082
34	0x3d6e1cf6	0.058133088
35	0xbb7b7800	-0.0038371086
36	0xbdbaaf2c	-0.09115443
37	0x3d5ae370	0.053439558
38	0x3df2a65a	0.11848135
39	0x3de830f8	0.11337465
40	0x3d204930	0.039132297
41	0x3c7e2d64	0.015513752
42	0x3c3fd7cf	0.011709168
43	0xbdfc8bbc	-0.1233134
44	0x3bd97c52	0.0066371346
45	0xbde61a7e	-0.11235522
46	0xbdf6c54e	-0.12049352
47	0xbdc92b12	-0.09822668
48	0xbd1668a3	-0.036720883
49	0x3dd3de52	0.103451386
50	0xbcd64f06	-0.026160728
51	0xbdd8f20a	-0.1059304
52	0xbcce4618	-0.025179908
53	0xbd605aa9	-0.05477396
54	0x3cc9d96e	0.024639811
55	0x3dac2b89	0.08406741
56	0xbd8424ae	-0.064523086
57	0xbd916a7a	-0.07100387
58	0xbdbf5826	-0.09342985
59	0x3dc427e2	0.095779195
60	0x3b6c0459	0.0036013334
61	0xbd98ff7a	-0.07470603
62	0xbdfa848a	-0.12232311
63	0x3d8743e6	0.066047475
